Chatbot/Backed_Draft_01/data.pth (torch, 7594 bytes, 6 tensors)

l1.weight f4 [8, 92]
000000 b8 f8 42 3e ac 37 ef bd e5 78 63 be 98 3a 21 3d
       0.19040191 -0.116805404 -0.22214086 0.03936252
000010 56 5e 56 3e b8 8f d4 bd 8d 83 4d 3d be 77 d1 bc
       0.20934424 -0.10378975 0.050174285 -0.025569793
000020 eb a1 01 bd 2a fd b2 3c 27 43 cc bd cd 3a f0 bd
       -0.031648558 0.021849234 -0.09973746 -0.11729965
000030 64 a5 f2 bd 14 5c f5 3c 2d 95 75 3e 25 96 39 bd
       -0.11847952 0.029951133 0.23982687 -0.045309205
000040 a4 b3 fe 3c f8 31 c7 be 0d 56 b1 3d e9 49 48 be
       0.031091519 -0.3890531 0.08658991 -0.19559444
000050 6c 9f 67 be 95 dd 3e be 45 54 3c 3d b0 77 45 be
       -0.22619408 -0.18639214 0.045978803 -0.19283938
000060 72 f2 1f 3d 80 84 40 3b 63 8e 9b 3d 74 ed c8 bd
       0.039049573 0.002937585 0.075955175 -0.098109156
000070 8e 4e 28 3d 9d 86 cc 3d 38 aa ba 3d 6e 1d 98 bd
       0.04109054 0.09986613 0.09114498 -0.07427488
000080 a9 3f 17 bd b5 9a 1d bd 2c 04 c8 bd 58 8f 6b bc
       -0.036925945 -0.03847762 -0.09766421 -0.0143774375
000090 1d 8d cf bd c1 13 c8 bd 80 2d bb bd 3d 7d c8 bd
       -0.10134337 -0.09769393 -0.09139538 -0.09789512
0000a0 ec 7f 04 bd b5 12 b4 3d 84 35 5e 3e e9 a3 25 3e
       -0.03234856 0.087926306 0.21700102 0.16175808
0000b0 c9 be df 3e 28 76 ab 3d 69 4a f0 bd aa c9 de 3d
       0.43700245 0.08372146 -0.117329426 0.10878308
0000c0 70 6d 90 bd 62 36 0a bd 31 34 0d 3d 66 a2 0d bd
       -0.070521235 -0.03374327 0.0344736 -0.034578703
0000d0 15 f4 95 bd 3d 26 c6 bd db 2f 14 3b 37 54 86 bd
       -0.073219456 -0.09675262 0.0022611532 -0.065590315
0000e0 db c1 ab be 75 ba 09 3e 52 2a 9c bd b5 86 9b 3e
       -0.33546337 0.13450034 -0.076252595 0.3037621
0000f0 d0 19 70 3d 25 ea 3b bd e0 e7 0e be dc 55 65 3e
       0.058618367 -0.045877595 -0.13955641 0.22396034
000100 c5 34 c8 bd 9c d9 b3 bd c8 2d ba 3e 6a 1e 46 3e
       -0.0977569 -0.0878174 0.36363053 0.1934754
000110 7e cf 9a bd 0b 2a b6 3d 9b d2 cd bc 44 1d 9a bd
       -0.07559107 0.08894738 -0.025124839 -0.07525113
000120 7e 73 fa 3e 08 89 c7 bc c3 07 0c 3e 2c 68 ad bd
       0.4891624 -0.024357334 0.13674836 -0.08467135
000130 4f ba 8a bc b7 31 a2 3e 4f c8 e3 3e 01 4a d2 bd
       -0.016934542 0.31678554 0.4448876 -0.102680214
000140 c3 b9 a4 3e 10 64 45 3d 34 e9 91 bd cc d1 d4 bd
       0.32172975 0.04819113 -0.07124558 -0.10391578
000150 40 f7 2d bd 25 28 09 ba 79 71 78 3c e1 2f 90 3d
       -0.042472124 -0.0005232117 0.015163773 0.07040382
000160 b4 bf 1a bd ce 9f 72 3e 9a 5e 25 3d 60 90 4b 3b
       -0.03778048 0.23693773 0.040373422 0.0031061396
000170 f9 c0 c5 bc e5 2b a9 3e 0d d8 8c be 44 80 20 3f
       -0.024139868 0.330413 -0.27508584 0.6269572
000180 0c c0 d7 be 37 8a 58 be 0e 92 b9 3e b5 70 42 be
       -0.42138708 -0.21146475 0.36244243 -0.18988307
000190 73 a6 2f 3e 67 fd ca 3d 96 70 c0 be da 05 34 3e
       0.17153339 0.09911614 -0.37585896 0.17580357
0001a0 99 32 06 bf 99 cc 01 3f e5 b6 bf be 13 77 3c be
       -0.52420956 0.50702816 -0.37444225 -0.18404798
0001b0 2b 51 06 3f 5e f8 bf 3e dd aa b7 3e e0 89 90 be
       0.524676 0.37494177 0.35872546 -0.2823019
0001c0 90 7c 5c bd b8 b0 a5 3e db 45 7f 3e e9 98 78 be
       -0.05382973 0.32361388 0.24928991 -0.2427708
0001d0 f8 2c db 3e c8 f7 fc 3e a6 30 9f 3e a8 83 c0 be
       0.42807746 0.49407792 0.31091803 -0.37600446
0001e0 b0 43 e5 3e a8 43 a7 be 7e d6 00 3f 86 ff c3 3e
       0.44778204 -0.32668805 0.5032729 0.38280886
0001f0 03 92 cc 3d 15 55 03 3f 36 ae ad 3e 92 d9 cc be
       0.09988787 0.513017 0.33921975 -0.40009743
000200 fe 67 a8 3e 2a 1b ae 3e f0 2e 32 bd 27 1b ae 3e
       0.3289184 0.340051 -0.043501794 0.3400509
000210 94 39 a7 3e 05 64 26 3e 75 40 3d be 2c fc eb be
       0.32661116 0.16249092 -0.1848162 -0.4609083
000220 35 58 85 be 20 91 a0 bd b0 aa 30 be a5 f4 34 be
       -0.2604386 -0.078401804 -0.17252612 -0.1767145
000230 50 50 11 be 6b c9 c9 be f1 22 b5 3e 7b 63 0d 3f
       -0.14190793 -0.39411482 0.3537822 0.5522992
000240 bc 58 9a 3e 62 23 89 be fe 80 17 be df 80 ff 3e
       0.30145824 -0.26784807 -0.147953 0.49903008
000250 7d 7e 07 be 32 b4 87 3e 31 59 41 3e 25 79 a4 3e
       -0.13231845 0.26504666 0.1888168 0.32123676
000260 2f 78 74 be e1 76 b1 bd 20 e5 3e bb c9 55 a4 be
       -0.23873971 -0.086652525 -0.0029128268 -0.320967
000270 ea 31 ae 3e d9 e1 89 3e c0 8e dc bd 3e 05 9d 3e
       0.34022456 0.2693012 -0.10769415 0.30668062
000280 43 6e a4 bd bc 05 c7 3e 57 5d a8 be ee e3 9b 3d
       -0.08028843 0.38871562 -0.32883713 0.076118335
000290 8b 85 f4 bd 1a b2 90 bd d4 4a 94 be 56 93 bf 3e
       -0.11939534 -0.0706522 -0.2896334 0.37417096
0002a0 a0 a1 db 3e 91 c3 c0 3e aa 0b df be 8a a9 70 3d
       0.42896748 0.37649205 -0.43563586 0.058755435
0002b0 d0 08 b4 bd 3b 08 8d 3e a3 d8 61 be 59 f0 74 be
       -0.08790743 0.27545342 -0.22055297 -0.2391981
0002c0 42 3e 84 be 7d 52 df be 5a a9 21 be 00 d7 4b 3e
       -0.2582875 -0.4361762 -0.15787259 0.19906235
0002d0 71 8e 49 3d 01 f0 0a be 0f 0b 09 be 25 1d ea 3e
       0.04920811 -0.13568117 -0.13383125 0.4572536
0002e0 51 84 79 bb 28 f4 80 be 0e 10 d0 3e 20 2d 6f be
       -0.0038073251 -0.25186276 0.4063725 -0.23357058
0002f0 ea c8 da be 00 1c 65 3e 5e 88 e5 3e 38 b7 51 3e
       -0.4273141 0.22373962 0.44830602 0.20480049
000300 7c bf 0b 3e d7 6d 68 3c 6a 2b 94 be 60 b2 fd 3d
       0.13647264 0.014186344 -0.28939372 0.12387538
000310 7e c9 c5 be 46 d5 34 3e c9 02 44 3e 51 9c 91 3e
       -0.3863029 0.17659482 0.19141687 0.28439572
000320 d7 b3 9f be c0 20 6d 3e d0 9c 63 be ee cb b5 3e
       -0.31191894 0.23157024 -0.22227788 0.35507149
000330 39 23 aa 3e 2e 94 8c 3e 79 a0 d7 3e ca 93 c8 3e
       0.33229998 0.27456802 0.42114618 0.39175254
000340 42 b7 db bd 64 2d c5 be 7d d1 30 be 30 65 94 be
       -0.10728313 -0.38511193 -0.17267413 -0.2898345
000350 4b 94 be 3e 7b 64 a1 be 1d f1 5b be 5a c0 01 be
       0.37222514 -0.31521973 -0.21478696 -0.12671033
000360 2c 04 08 be 25 0f a6 be ca 1f 94 be c2 7d b2 be
       -0.13282841 -0.3243343 -0.28930503 -0.3486157
000370 86 fa 93 be e7 2a 94 be 3d d9 ae 3e 13 18 94 be
       -0.28902072 -0.28938982 0.34150115 -0.28924617
000380 af b0 77 3e 16 4a c6 3e 4d f2 af 3e 8b 42 cf 3e
       0.24188493 0.38728398 0.34364548 0.40480456
000390 98 eb f9 3e 27 02 b6 3e 8b 7d b6 3d bc 37 ed 3e
       0.48812556 0.35548517 0.08910664 0.46331584
0003a0 eb 76 a7 3e 3b da c7 3e a3 7d 6b be 3e 9a a1 3d
       0.32707915 0.39033684 -0.22997145 0.078907475
0003b0 a5 6f 81 3e 48 85 a0 3e 5c 01 a9 3e bc 85 61 3e
       0.2528049 0.31351686 0.3300885 0.22023672
0003c0 64 01 b7 3e d1 8e 39 3d 7f 36 c6 3e 56 cb c3 3e
       0.35743248 0.045302216 0.38713452 0.3824107
0003d0 87 88 e0 3e 5c 62 95 3e 21 93 a0 3e 6d 47 42 3c
       0.43854162 0.29176605 0.3136225 0.01185785
0003e0 f5 95 7e be 0c 87 fc 3d 47 af 92 3d 59 9e 1e 3e
       -0.24861892 0.12330446 0.07162338 0.15490092
0003f0 fe 1a 60 3d db f5 aa 3d 10 a8 87 be 5f 5d f2 3d
       0.05471324 0.083476745 -0.2649541 0.118342154

l1.bias f4 [8]
000000 d3 f7 c7 3d 2f 7e c0 3e 7a 0a 94 3e 23 cb 46 3e
       0.097640656 0.3759627 0.28914243 0.19413428
000010 09 ed 02 3f e1 2f e9 3e 53 b7 35 3f 23 87 43 3e
       0.51142937 0.4554434 0.70982856 0.1909452

l2.weight f4 [8, 8]
000000 c9 dc f4 3c 40 51 be be 04 b9 9d 3e be 5f 04 bf
       0.029890435 -0.37171364 0.30805218 -0.5170859
000010 1d d4 81 3f 63 63 e5 be 1c b7 6f 3f e2 8b f8 bc
       1.0142857 -0.4480239 0.9363878 -0.030340139
000020 13 63 b3 3e 09 46 f6 be dc d0 2e bf 7b e8 34 bf
       0.35036525 -0.48100308 -0.68287444 -0.7066724
000030 89 27 46 3e 1a 5f 20 3f f9 a6 85 3f bb 04 84 be
       0.19351019 0.62645113 1.0441581 -0.2578486
000040 20 c5 45 bf 04 fe 7c be d1 06 19 3f ac 6e a7 3e
       -0.77253914 -0.24706274 0.59776026 0.32701623
000050 32 e5 78 3d 9f 4a af be 31 a1 5e be ed 44 a1 3e
       0.060765453 -0.3423662 -0.21741177 0.314979
000060 49 95 48 be 37 9a 30 bf 52 75 72 bc 4b 8c 9d 3e
       -0.19588198 -0.68985313 -0.014798479 0.30771098
000070 d0 98 3e bf 51 b4 45 3e 01 df e7 3e 75 93 19 3f
       -0.74451923 0.19307067 0.45287326 0.59990627
000080 5f 3f d6 3e 07 5d e4 3e 51 02 55 bc 13 b8 42 3f
       0.41845223 0.44602224 -0.013001041 0.76062125
000090 e9 83 47 bf 91 67 8b 3f 67 20 0b 3f 59 f2 9e be
       -0.77935654 1.0890981 0.5434632 -0.31044272
0000a0 70 2c 5c be 66 cf 89 3f 5a 4e 30 bd 32 1f 44 3f
       -0.21501327 1.0766418 -0.043043472 0.766101
0000b0 fb 65 3d 3f 40 36 8d be 55 87 76 3e 56 c5 6f bf
       0.73983735 -0.27580452 0.24075063 -0.93660486
0000c0 cf 35 3d 3f 02 b3 e0 bd b4 83 8d 3f 1e 7a 1a 3f
       0.7391023 -0.10971643 1.1055818 0.60342586
0000d0 fa ee f3 be ed 64 5b 3f 80 e5 69 3d d1 58 e2 3e
       -0.47643262 0.85700876 0.057103634 0.44208387
0000e0 6d 95 67 3e 0c 88 de be f9 63 72 3f 12 67 66 3f
       0.22615595 -0.4346317 0.94683796 0.9000102
0000f0 f5 f6 a8 bd d7 99 ef bd ab 64 29 3f 73 46 85 3f
       -0.08250228 -0.116992645 0.6616923 1.0412124

l2.bias f4 [8]
000000 92 e0 07 3d 5f cb 72 3f ab 9f 61 3f ff d2 93 be
       0.03317315 0.9484157 0.8813426 -0.28871915
000010 86 6a 30 3e 7d 42 4c 3f 83 bf 51 3e 6a 8a cd be
       0.17228135 0.79788953 0.20483212 -0.40144664

l3.weight f4 [13, 8]
000000 3e df c8 be 7a fe d5 3e af 48 f0 be 16 91 39 3f
       -0.3923282 0.41795713 -0.46930453 0.7248701
000010 79 2d a4 3e b6 ee 83 bf 13 5f 2e be bc b5 82 3d
       0.32065943 -1.0307224 -0.17028455 0.06382319
000020 59 f4 88 bf a6 24 7b bf c2 92 56 3e a8 77 08 bf
       -1.0699569 -0.98102796 0.20954421 -0.5330758
000030 01 fb 8c bc b1 b3 4b 3f a7 b7 8f bf 32 ed 46 bf
       -0.017209532 0.7957106 -1.1227921 -0.7770568
000040 52 7f dd 3e b9 8f 80 bf 97 ca 50 3e c2 1e 47 bf
       0.432612 -1.0043861 0.20389782 -0.7778131
000050 bb ab 8d bf 31 55 14 bf c8 26 33 bd 55 cc 05 3f
       -1.1068033 -0.5794249 -0.043738157 0.5226491
000060 ec 19 81 be 9d bb d3 be a6 c0 59 3e be 6f 32 bf
       -0.2521509 -0.41354075 0.21264896 -0.69701755
000070 49 34 c6 bd 0a 24 01 3e 69 d9 59 3d 10 56 61 3d
       -0.09677941 0.12611404 0.053185854 0.055013716
000080 e7 cf 45 be 85 2a a6 3e 51 44 22 3f be 1f 97 be
       -0.1931759 0.32454315 0.6338549 -0.29516405
000090 31 70 85 bf 17 9c d6 3e 22 9e 6e be c5 3f 5e bf
       -1.0424863 0.41915962 -0.2330251 -0.86816055
0000a0 ac f4 ad bf 79 54 7d bf 84 23 5c bf 3b 85 64 bf
       -1.3590293 -0.9895702 -0.8599169 -0.89265794
0000b0 ea 6e 18 3f 1f 46 40 3e 50 0c 01 3f f0 e5 42 bd
       0.5954424 0.18776749 0.5040941 -0.047582567
0000c0 c0 0a c6 3e 18 22 1c 3f 33 47 a7 3e 8a 51 87 bf
       0.38680077 0.6098952 0.32671508 -1.0571759
0000d0 6c 3f a2 bf 6d e4 e1 bd be 52 68 bf 1b 2c 0a bf
       -1.2675605 -0.11029897 -0.90751255 -0.5397355
0000e0 5a 37 47 bf ca 79 41 3f 56 41 c0 3d 8b 33 f3 be
       -0.77818835 0.7557646 0.09387462 -0.47500262
0000f0 cc 13 0a 3f a6 28 75 3d d6 8f 42 bc 27 8c a8 bf
       0.5393646 0.05985322 -0.0118751135 -1.3167771
000100 5c a8 24 bf df 15 5c bf 62 78 83 3d 4f d7 91 3e
       -0.64319396 -0.8597087 0.064194456 0.2848458
000110 60 07 c7 3e ee d1 85 bf 3e 88 e9 3e f0 a8 f8 3d
       0.38872814 -1.045469 0.45611757 0.12141597
000120 ff 57 9a bf 1d 08 34 bf b7 95 35 3f 1d 48 6b 3e
       -1.2058104 -0.7032488 0.7093157 0.22976728
000130 8d b9 7b bf 32 3d 39 bf aa a8 0d 3f 4c 45 5a 3e
       -0.98330003 -0.72359 0.55335486 0.21315497
000140 d7 63 f2 3e 62 5a 0b bf 50 8a 83 bf 24 55 9a be
       0.47341797 -0.5443479 -1.0276585 -0.30143082
000150 51 ab 8d bf 6d 3c 22 3f 27 0a 7a bf 0f 91 a2 bf
       -1.1067907 0.6337345 -0.9767174 -1.2700518
000160 4f d4 61 be 61 c4 06 3e 61 23 83 bf 6f c9 76 bf
       -0.22053646 0.1316085 -1.0245172 -0.96401113
000170 83 c3 67 3e 81 23 03 bf 97 08 fc 3e d3 19 26 3c
       0.22633176 -0.5122605 0.49225304 0.010137993
000180 60 e8 db 3e e8 52 1e 3f 9e 28 56 bf c7 3c 4e be
       0.42950726 0.61845255 -0.83655727 -0.20140372
000190 6b cc 7a bf fd 8d d5 bd 72 ae 22 bf 3d 73 57 bd
       -0.9796817 -0.10427473 -0.6354743 -0.052600134

l3.bias f4 [13]
000000 8f 20 e5 be 70 25 d6 3d 1d 35 37 be 38 98 32 3e
       -0.44751403 0.104563594 -0.17891355 0.1744088
000010 6f a8 5f 3e fb f3 05 bf d4 aa 03 3d a2 1e 52 3e
       0.21841596 -0.5232541 0.032145336 0.20519498
000020 54 09 b7 bd 87 ad a4 3d 3b dc 8b be d0 34 a6 3e
       -0.08937326 0.0804091 -0.2731646 0.32462168
000030 db ff e5 be
       -0.44921765
